…
pretrain_path: None
print_step: 100
proposal_path_train: None
proposal_path_val: None
reg_thresh: [0.2]
resume_path: None
sampling: uniform
save_root: ./datasets/ava/cache\Debug-max1-i3d-two_branch/
save_step: 9999999
scale_norm: 2
scheduler: cosine
selection_nms: False
selection_sampling: softmax
selection_score: score
start_epochs: 0
start_iteration: 0
stds: (1, 1, 1)
temporal_mode: extrapolate
topk: -1
video_name: Debug
video_test: Debug
video_train: Debug
warmup_iters: 1000
weight_decay: 1e-07
TwoBranchNet(
  (i3d_conv): Sequential(
    (0): Mixed(
      (branch_0): Unit3Dpy(
        (conv3d): Conv3d(832, 256, kernel_size=(1, 1, 1), stride=(1, 1, 1), bias=False)
        (batch3d): BatchNorm3d(256, eps=1e-05, momentum=0.1, affine=True, track_running_stats=True)
      )
      (branch_1): Sequential(
        (0): Unit3Dpy(
          (conv3d): Conv3d(832, 160, kernel_size=(1, 1, 1), stride=(1, 1, 1), bias=False)
          (batch3d): BatchNorm3d(160, eps=1e-05, momentum=0.1, affine=True, track_running_stats=True)
        )
        (1): Unit3Dpy(
          (conv3d): Conv3d(160, 320, kernel_size=(3, 3, 3), stride=(1, 1, 1), padding=(1, 1, 1), bias=False)
          (batch3d): BatchNorm3d(320, eps=1e-05, momentum=0.1, affine=True, track_running_stats=True)
        )
      )
      (branch_2): Sequential(
        (0): Unit3Dpy(
          (conv3d): Conv3d(832, 32, kernel_size=(1, 1, 1), stride=(1, 1, 1), bias=False)
          (batch3d): BatchNorm3d(32, eps=1e-05, momentum=0.1, affine=True, track_running_stats=True)
        )
        (1): Unit3Dpy(
          (conv3d): Conv3d(32, 128, kernel_size=(3, 3, 3), stride=(1, 1, 1), padding=(1, 1, 1), bias=False)
          (batch3d): BatchNorm3d(128, eps=1e-05, momentum=0.1, affine=True, track_running_stats=True)
        )
      )
      (branch_3): Sequential(
        (0): MaxPool3dTFPadding(
          (pad): ConstantPad3d(padding=(1, 1, 1, 1, 1, 1), value=0)
          (pool): MaxPool3d(kernel_size=(3, 3, 3), stride=(1, 1, 1), padding=0, dilation=1, ceil_mode=True)
        )
        (1): Unit3Dpy(
          (conv3d): Conv3d(832, 128, kernel_size=(1, 1, 1), stride=(1, 1, 1), bias=False)
          (batch3d): BatchNorm3d(128, eps=1e-05, momentum=0.1, affine=True, track_running_stats=True)
        )
      )
    )
    (1): Mixed(
      (branch_0): Unit3Dpy(
        (conv3d): Conv3d(832, 384, kernel_size=(1, 1, 1), stride=(1, 1, 1), bias=False)
        (batch3d): BatchNorm3d(384, eps=1e-05, momentum=0.1, affine=True, track_running_stats=True)
      )
      (branch_1): Sequential(
        (0): Unit3Dpy(
          (conv3d): Conv3d(832, 192, kernel_size=(1, 1, 1), stride=(1, 1, 1), bias=False)
          (batch3d): BatchNorm3d(192, eps=1e-05, momentum=0.1, affine=True, track_running_stats=True)
        )
        (1): Unit3Dpy(
          (conv3d): Conv3d(192, 384, kernel_size=(3, 3, 3), stride=(1, 1, 1), padding=(1, 1, 1), bias=False)
          (batch3d): BatchNorm3d(384, eps=1e-05, momentum=0.1, affine=True, track_running_stats=True)
        )
      )
      (branch_2): Sequential(
        (0): Unit3Dpy(
          (conv3d): Conv3d(832, 48, kernel_size=(1, 1, 1), stride=(1, 1, 1), bias=False)
          (batch3d): BatchNorm3d(48, eps=1e-05, momentum=0.1, affine=True, track_running_stats=True)
        )
        (1): Unit3Dpy(
          (conv3d): Conv3d(48, 128, kernel_size=(3, 3, 3), stride=(1, 1, 1), padding=(1, 1, 1), bias=False)
          (batch3d): BatchNorm3d(128, eps=1e-05, momentum=0.1, affine=True, track_running_stats=True)
        )
      )
      (branch_3): Sequential(
        (0): MaxPool3dTFPadding(
          (pad): ConstantPad3d(padding=(1, 1, 1, 1, 1, 1), value=0)
          (pool): MaxPool3d(kernel_size=(3, 3, 3), stride=(1, 1, 1), padding=0, dilation=1, ceil_mode=True)
        )
        (1): Unit3Dpy(
          (conv3d): Conv3d(832, 128, kernel_size=(1, 1, 1), stride=(1, 1, 1), bias=False)
          (batch3d): BatchNorm3d(128, eps=1e-05, momentum=0.1, affine=True, track_running_stats=True)
        )
      )
    )
  )
  (downsample): Conv3d(1024, 4096, kernel_size=(1, 1, 1), stride=(1, 1, 1))
  (dropout): Dropout(p=0.0, inplace=False)
  (global_cls): Conv3d(201728, 60, kernel_size=(1, 1, 1), stride=(1, 1, 1))
  (local_conv): Sequential(
    (0): Bottleneck_resample(
      (conv1): Conv2d(4928, 1024, kernel_size=(1, 1), stride=(1, 1), bias=False)
      (conv2): Conv2d(4928, 256, kernel_size=(1, 1), stride=(1, 1), bias=False)
      (conv3): Conv2d(256, 256, kernel_size=(3, 3), stride=(1, 1), padding=(1, 1), bias=False)
      (conv4): Conv2d(256, 1024, kernel_size=(1, 1), stride=(1, 1), bias=False)
      (relu): ReLU(inplace=True)
    )
    (1): Bottleneck(
      (conv1): Conv2d(1024, 256, kernel_size=(1, 1), stride=(1, 1), bias=False)
      (conv2): Conv2d(256, 256, kernel_size=(3, 3), stride=(1, 1), padding=(1, 1), bias=False)
      (conv3): Conv2d(256, 1024, kernel_size=(1, 1), stride=(1, 1), bias=False)
      (relu): ReLU(inplace=True)
    )
    (2): Bottleneck(
      (conv1): Conv2d(1024, 256, kernel_size=(1, 1), stride=(1, 1), bias=False)
      (conv2): Conv2d(256, 256, kernel_size=(3, 3), stride=(1, 1), padding=(1, 1), bias=False)
      (conv3): Conv2d(256, 1024, kernel_size=(1, 1), stride=(1, 1), bias=False)
      (relu): ReLU(inplace=True)
    )
  )
  (downsample2): Conv2d(1024, 4096, kernel_size=(1, 1), stride=(1, 1))
  (local_reg): Linear(in_features=200704, out_features=4, bias=True)
  (neighbor_reg1): Linear(in_features=200704, out_features=4, bias=True)
  (neighbor_reg2): Linear(in_features=200704, out_features=4, bias=True)
)

Epoch 1/1(440) Iteration 000100 lr 1.90e-04 loss-1 1.539 loss_global_cls 0.692 loss_local_loc 0.085 loss_neighbor_loc 0.000 Timer 79.273(79.273) GPU usage: [4453]
Epoch 1/1(440) Iteration 000200 lr 2.80e-04 loss-1 1.466 loss_global_cls 0.690 loss_local_loc 0.078 loss_neighbor_loc 0.000 Timer 60.544(69.909) GPU usage: [4187]
Epoch 1/1(440) Iteration 000300 lr 3.70e-04 loss-1 1.446 loss_global_cls 0.684 loss_local_loc 0.076 loss_neighbor_loc 0.000 Timer 60.853(66.890) GPU usage: [4187]
…
